data/beamforming_weights_aria.npy (npy, 128984 bytes, 1 tensors)

array f8 [7, 13, 177]
000000 3d 20 a9 dc 99 6f b3 be a5 4f ae 55 dc 3a d1 be
       -1.1584723888114758e-06 -4.107934126990682e-06
000010 b4 17 5a 6c e3 55 d5 3e 06 5b 98 6a d6 2a c8 be
       5.086779940937791e-06 -2.88097074442205e-06
000020 70 53 43 87 98 ea e2 3e a3 86 99 a3 9a ed e5 be
       9.020037602539102e-06 -1.0456152369889385e-05
000030 30 a1 ee 0f 90 e7 e5 3e 96 87 2c 37 11 76 f2 be
       1.0444899542453272e-05 -1.760597246936549e-05
000040 be 04 67 30 15 52 f7 3e c7 71 a4 27 74 4c f7 be
       2.2240291423396235e-05 -2.2219321615600683e-05
000050 35 fc d4 9c b5 f3 00 3f a7 38 bf 5c 76 38 03 bf
       3.2333354833096266e-05 -3.6660301332967515e-05
000060 cb 03 3d b8 0f 13 04 3f 2c cf 65 73 03 a8 09 bf
       3.8288991190522566e-05 -4.893551379128581e-05
000070 26 d4 27 cb ef ed 0b 3f 08 24 73 69 a6 96 0b bf
       5.327117959900316e-05 -5.2620843399582616e-05
000080 43 3b a0 e2 f3 00 10 3f 0c 86 7f f1 89 1d 10 bf
       6.104935224036678e-05 -6.147531928448624e-05
000090 a7 98 6d 75 43 c7 0c 3f da cb 84 51 96 74 0e bf
       5.489039056420899e-05 -5.808910117579393e-05
0000a0 b1 c5 31 61 3d 47 09 3f 41 32 dd 66 43 c5 02 bf
       4.821449342607852e-05 -3.5802001419147935e-05
0000b0 08 a4 42 0b a0 03 fe 3e 48 d6 98 23 af 2d d9 be
       2.862373430959425e-05 -6.003011145552075e-06
0000c0 c0 4d e7 74 f1 74 fa be 61 6b fd 14 9c 2f 0e 3f
       -2.5231179557950447e-05 5.757517885625927e-05
0000d0 67 6e 97 ae bf e8 1c bf e4 18 29 72 64 3b 27 3f
       -0.00011027975019522463 0.00017724610468600806
0000e0 f3 f8 c3 3a 2c 1d 31 bf 4e b7 21 b8 e1 07 39 3f
       -0.00026113824675623383 0.0003819395134375584
0000f0 da 8b d5 e1 2a 6e 42 bf d5 c0 cc 48 70 c0 4b 3f
       -0.0005624493966646063 0.0008469150794550249
000100 87 bf cb 78 2b a1 58 bf 32 36 68 4a a1 a9 82 3f
       -0.0015032696275589523 0.00911260612795237
000110 bc b4 76 54 13 07 84 3f aa eb f0 7f 40 ed 69 bf
       0.009779120459678096 -0.0031648883591776826
000120 a1 ce 51 8f d1 4b 86 bf ee 3d e7 49 93 76 83 bf
       -0.010886799989953845 -0.009503508274888408
000130 bc 58 98 c6 f6 ba 42 3f 33 b3 2f 5a e5 2c 83 3f
       0.0005716042480255128 0.009362975897568048
000140 33 1c 97 a2 35 3c 7e 3f 7b a2 35 9f b8 94 74 bf
       0.007381639015370078 -0.005024644069046342
000150 92 ea e0 e2 0a 98 8b bf e2 38 92 92 09 31 87 bf
       -0.013473591851029174 -0.01132400015401597
000160 19 56 22 fe 1c a4 54 3f ad 12 cc b7 ac 0f 89 3f
       0.001259830773539311 0.01223692832855624
000170 41 0e c6 62 26 35 88 3f 06 92 b5 45 e8 4a 68 bf
       0.011820125474293454 -0.0029654060905832695
000180 22 9a f7 d9 68 c9 8d bf 92 91 c9 af d4 f3 87 bf
       -0.0145443145292577 -0.011695539106946016
000190 d1 04 6f d6 11 65 60 3f f9 78 c6 e7 f6 1c 93 3f
       0.0020013187781563265 0.01866517820018829
0001a0 dd 63 1a 50 d6 e1 8c 3f 1d 42 88 fc 63 31 7b 3f
       0.014102625197937197 0.006638899395071477
0001b0 9d 46 c7 ca e6 1e 87 bf da ec bc 76 95 7a 93 bf
       -0.011289408744150459 -0.01902230775088474
0001c0 a5 4a 7f 2e 40 65 55 3f de a6 4c aa b0 ca 81 3f
       0.0013058783315399805 0.008687381932378665
0001d0 6e 11 e8 9b 6c 8e 8c 3f 58 e3 e4 49 08 1d 78 3f
       0.01394352770604065 0.005887062432798761
0001e0 fb dd af bd 9a f1 83 bf 65 8e 95 f9 af bc 60 bf
       -0.00973816768053747 -0.0020430981646073925
0001f0 1d d1 4e 4f 4b 74 7a bf d2 d6 50 41 c4 2f 99 3f
       -0.006458563021557032 0.02459627770095702
000200 b1 d6 d6 10 5a 7a 92 3f a6 40 79 cd bb b4 71 3f
       0.01804486015108492 0.004322751621273968
000210 1f 8c 4a a9 2d b6 ab bf f7 52 3e dd f3 3e a6 bf
       -0.054124285617284544 -0.043449040181405545
000220 50 78 00 df 22 a7 ae bf 98 68 3d 0f 98 16 a2 bf
       -0.05986889812651042 -0.03532862840684564
000230 00 90 68 64 bc aa a1 3f 5e 47 75 76 02 65 75 bf
       0.03450573659600309 -0.005223283405330152
000240 bc 46 78 9b 74 30 a1 3f b1 bd 09 62 30 af 95 bf
       0.03357281110596719 -0.021176105483787292
000250 52 d0 ea 3d a1 8b 80 3f 88 a4 bc 14 83 85 b4 3f
       0.008078822805465933 0.08016223198196049
000260 26 83 10 93 6b 85 a2 3f e0 ad d7 a7 86 0c b6 bf
       0.036174165441712966 -0.08612863157002648
000270 b4 25 82 64 81 3e 8d bf f8 35 7a d9 df 0c 5a 3f
       -0.014279375915310456 0.0015899835615614793
000280 92 35 a5 30 3e c8 a2 bf 94 1c 6d cc 57 8b aa bf
       -0.03668398231330196 -0.05184435244023536
000290 20 bb 5b 9e a9 40 b1 bf 34 07 03 78 d3 10 8d 3f
       -0.06739292255563756 0.014192249393434865
0002a0 33 d5 5c 30 44 b7 93 3f df 29 82 3a 01 8a 4c 3f
       0.019253793193646018 0.0008709436415455482
0002b0 1d 95 3a 85 d5 35 64 bf 69 2b 49 77 d1 b6 54 3f
       -0.0024670763321689286 0.0012642903867738592
0002c0 d1 26 e8 f1 f7 47 98 3f ad 19 b3 bd b9 b5 a0 3f
       0.023712038173505704 0.032636455923739184
0002d0 33 04 d6 56 5c 50 a0 3f 37 8c a0 d1 1f 36 a1 3f
       0.03186310348520074 0.03361606058049243
0002e0 21 47 81 bf c1 1a 8f 3f 3b 82 13 b2 39 79 56 bf
       0.015187753350037138 -0.0013716758187955053
0002f0 61 a5 c7 f8 84 e0 7d 3f 8e 31 22 d5 9c a3 96 3f
       0.0072941965304179355 0.022108507641449608
000300 f3 1e ca 23 fd 9f 82 3f b1 8f 6e b8 04 be 90 3f
       0.00909421697112076 0.01634986282046186
000310 93 ec 6c 83 20 03 80 bf 21 63 52 93 16 4d 85 bf
       -0.007818464289462567 -0.010400940295129115
000320 28 3c c0 5f 15 7d 62 bf 78 ee c6 0c d5 ea 7e 3f
       -0.0022569100820031447 0.007548172212803565
000330 11 66 1e 32 d7 09 90 3f fd 20 f3 50 a4 60 50 3f
       0.01566253894234221 0.0009996037149893604
000340 2a 9c a8 db 49 d6 79 bf fe d1 8e e9 d9 1d 78 bf
       -0.00630787707135653 -0.005887843341885189
000350 19 75 57 bc 39 d0 48 3f 1f 7b e7 cf 02 07 7d 3f
       0.0007572442925113692 0.007086764321200061
000360 b9 f9 d9 97 5b d0 8d 3f 2a 1b d6 80 9a 5f 80 3f
       0.014557567187918662 0.007994849259160459
000370 ed db d8 fa 37 7f 71 bf 17 7c 3e ec 54 87 77 bf
       -0.004271715804455828 -0.005744296769903754
000380 5b 40 86 92 b5 3e 59 bf 83 8d fa 91 74 95 80 3f
       -0.001540829960593035 0.008097563462178275
000390 16 12 be 8c 0a b3 86 3f ea 56 a4 6a d8 42 6d 3f
       0.011083681507224202 0.003571913422215957
0003a0 1f 96 85 93 cd 18 76 bf cf dd 1f 6c a4 35 87 bf
       -0.0053947477648299815 -0.011332783269593442
0003b0 de f5 b8 bb 62 2e 73 bf 19 01 76 9d 7e e5 7a 3f
       -0.004682908703725867 0.0065665193463930955
0003c0 77 58 7c f4 6c 00 80 3f 94 10 bf a4 06 eb 51 3f
       0.007813311778175553 0.0010936322096180328
0003d0 90 2e ad 3d d5 c1 7e bf a1 d0 db b2 fd ed 82 bf
       -0.007509072277411058 -0.009242994328339473
0003e0 de c7 e3 a4 10 bb 6a bf 48 5e 56 db ad b5 76 3f
       -0.0032630276756373386 0.005544356468270069
0003f0 c1 4f e9 16 b8 1c 82 3f a5 eb ca 57 5b f9 63 3f
       0.008843839835357305 0.0024382385293768177
000400 5c 7b c0 c0 6d 63 79 bf cf f7 be 4f 49 fa 81 bf
       -0.006198338243875803 -0.008778164621499855
000410 bc f4 7b 0d 0a 3d 5e bf bc 57 60 a9 b3 34 78 3f
       -0.0018456075831061866 0.005909635356166672
000420 08 c9 51 d6 ee 5d 80 3f 08 84 cf 29 42 c5 53 3f
       0.007991662898551258 0.0012066980482290397
000430 22 0b c8 57 6a 17 7e bf a2 0f c2 14 17 88 85 bf
       -0.007346549417436761 -0.010513477631555027
000440 b9 b1 3e 99 6c 7a 70 bf 46 e8 85 a1 81 20 74 3f
       -0.004023002827960581 0.004913812991043603
000450 97 6a e5 d6 42 79 82 3f cf 38 fa f5 ed 36 6c 3f
       0.009020349677191048 0.0034441611931646863
000460 7a be 69 bd d7 11 72 bf e6 40 45 be 4e 34 82 bf
       -0.004411547407115907 -0.00888883131179381
000470 17 f1 0d fb 74 d7 5a bf a9 ef d4 13 f7 dd 73 3f
       -0.0016382830037562962 0.004850354334219911
000480 3b 23 42 3f 87 c3 4c bf 74 35 f8 a4 9a 6c 41 3f
       -0.0008778009783024574 0.0005317454433126216
000490 5f 06 c2 0f ec 65 37 bf d9 42 81 5f 9c c4 2f 3f
       -0.00035702717992345216 0.0002423706898775555
0004a0 45 74 ee 5d 4b 0b 26 bf af dc 7c 67 bb d0 1c 3f
       -0.000168183279097985 0.00010992187332879948
0004b0 57 3e fb 1c e5 76 10 bf 02 89 9d 0b 21 4e 01 3f
       -6.280682941483519e-05 3.300703379129252e-05
0004c0 41 72 71 df b2 ed da be 85 76 58 f3 3b 44 f1 be
       -6.420257242370292e-06 -1.646665551479364e-05
0004d0 fb 24 bc 84 a0 d6 fd 3e c4 af 33 07 b1 f4 03 bf
       2.845610315119639e-05 -3.8062717885839074e-05
0004e0 e2 6f e0 94 b6 30 09 3f 8b d1 c3 3b 9d 6a 09 bf
       4.804665751143002e-05 -4.8478053459452454e-05
0004f0 0e 9f 79 04 ec 32 0a 3f 69 af c6 54 ab 4e 0b bf
       4.997046249571704e-05 -5.208454476543398e-05
000500 af bc d2 5a f2 8d 08 3f 41 72 91 98 18 d1 06 bf
       4.683395250403823e-05 -4.351955710355351e-05
000510 94 be 8a 7a 33 4e 06 3f 3f e9 d0 9c 1c 72 02 bf
       4.2544313435197465e-05 -3.518247431384896e-05
000520 0e ef 93 91 da d4 ff 3e fd ed 71 96 ef 00 fe be
       3.03568459445311e-05 -2.861371595173737e-05
000530 52 c3 a4 d6 82 a9 f6 3e 13 da 95 da e4 eb f1 be
       2.1612312971433616e-05 -1.7091236860855974e-05
000540 74 e5 b4 23 4c cc f1 3e 39 0e 58 00 c7 4c e5 be
       1.6973530575036544e-05 -1.0156589278948531e-05
000550 96 87 27 01 22 e1 e0 3e 7f 9b ce 61 be d5 e1 be
       8.048737105196228e-06 -8.504360318029858e-06
000560 69 2f e1 2e cf a8 cd 3e 56 55 cd f7 18 ef c5 be
       3.5356773571466936e-06 -2.6147335447183435e-06
000570 3b 57 4e b5 ba bc d0 3e e4 38 8e 53 92 dd 6f be
       3.990465150224317e-06 -5.935414510500121e-08
000580 43 7b 89 fd 8e 9d ae be 4e 31 ca 7f af cc b0 be
       -9.124119016537639e-07 -1.0013313832850728e-06
000590 f1 b7 49 31 88 a1 95 be 85 f6 34 43 0b 2d d5 3e
       -3.223267850742344e-07 5.048740649824688e-06
0005a0 48 d6 27 b2 dc ee d6 be 89 88 58 01 11 ed db 3e
       -5.467666400073958e-06 6.658086950691219e-06
0005b0 c0 4d 51 27 08 1e ee be b2 ce 13 7c 13 56 f0 3e
       -1.4361053425704785e-05 1.557944756753913e-05
0005c0 ba b2 41 8d be 83 f3 be c2 16 5d 68 d7 c6 fd 3e
       -1.861059793422063e-05 2.8397297249036257e-05
0005d0 56 55 3f 84 66 1e fe be 1b fe dd 94 43 eb 03 3f
       -2.8723480013888768e-05 3.79924773445917e-05
0005e0 bc fb 2b 0c 07 2e 09 bf 87 3f b1 f2 32 90 0a 3f
       -4.802664763835877e-05 5.066543084153359e-05
0005f0 e2 0f 18 2b 2f d9 0e bf 67 86 a4 09 63 7b 12 3f
       -5.883860775315865e-05 7.050315835901434e-05
000600 bc 93 89 4b ac 3b 12 bf 35 fc df 1e ca 2b 13 3f
       -6.955374818458279e-05 7.313176294586404e-05
000610 59 a7 19 6b 39 7e 15 bf 56 a5 2b 74 63 a0 13 3f
       -8.198953107699021e-05 7.48692228104327e-05
000620 57 94 ff 2a a5 10 12 bf 9a 39 44 2d 76 d0 10 3f
       -6.891258340109681e-05 6.414147657471947e-05
000630 3f 29 60 2c 4e 8f 08 bf 2a 6e 32 e5 9b 34 fa 3e
       -4.684407535656071e-05 2.4991515897283618e-05
000640 92 75 0e 5a 42 e8 a5 3e 4a 9f ad ef 9f b6 08 bf
       6.528872981030558e-07 -4.713702761344073e-05
000650 c2 26 04 9f 55 23 18 3f da eb 3d fd ce b9 23 bf
       9.207925882406389e-05 -0.00015049602245284407
000660 e8 0a 85 0a dd 32 30 3f e6 d9 a4 1e 53 4d 37 bf
       0.00024717232237862633 -0.0003555610588991384
000670 2c 47 cf d5 4d 4c 40 3f 69 58 a6 08 2d ee 46 bf
       0.0004973774008425239 -0.0006997795001548848
000680 61 05 73 d9 6c 2a 50 3f 96 df 38 cd f8 d4 58 bf
       0.0009866774542362721 -0.0015156202033619107
000690 de 87 f8 a6 e7 09 7a 3f ad 8b f5 f0 8a ca 66 bf
       0.006357102290651865 -0.0027821267791962785
0006a0 ad 8f b6 73 10 96 80 bf 7a fe 47 ef 2e fd 60 bf
       -0.008098724871906738 -0.002073852223702319
0006b0 57 04 77 d6 6a ec 78 3f ad 1d 9b a4 54 b4 88 3f
       0.006084840140318701 0.012062703393339225
0006c0 63 5c 72 70 5b bb 6e 3f 55 d1 e7 0d 1c 38 7b bf
       0.003751448242450149 -0.006645307147199316
0006d0 15 1e 0d 94 69 80 8a bf 74 6c ee f6 1b 64 8d bf
       -0.012940239744820873 -0.01435109946560529
0006e0 63 37 e5 05 68 4f 62 bf b4 3a 16 6f 0c b8 83 3f
       -0.0022351295184880756 0.009628388538457024
0006f0 50 95 99 16 95 53 87 3f bc 04 98 33 3d 54 65 bf
       0.011389889480777043 -0.0026036448805376294
000700 19 71 7a 04 e6 ee 8e bf da df 1e b3 3b 83 8e bf
       -0.015104100238482009 -0.014898744968249323
000710 bc e6 4e 8a 70 83 81 3f 7a 37 80 4d 3e 9e 92 3f
       0.008551482411223936 0.018181775551105762
000720 fb 94 5f 09 69 82 8a 3f ed 49 61 3e 35 35 82 bf
       0.012944050406029186 -0.00889054867380864
000730 08 be a7 47 d7 d5 83 bf 3b 51 ae a1 86 a7 76 bf
       -0.009685212969059456 -0.005530858902506981
000740 02 22 b1 83 f4 35 70 3f 78 a2 f4 f9 cd 65 8a 3f
       0.003957705625972087 0.012889489355601955
000750 a0 81 53 77 66 0c 94 3f de 3a fe e5 fb f5 83 3f
       0.019578553231328066 0.009746520954448664
000760 4c a2 8e f3 07 cb 9d bf 13 78 02 26 f2 83 98 bf
       -0.029094814529943044 -0.023940833635258296
000770 08 16 aa 2c f8 41 60 3f 31 0a 24 0e 30 a4 78 3f
       0.001984581676256484 0.00601595660760039
000780 11 d1 6f 84 6c f1 91 3f d7 12 98 45 20 b3 8d 3f
       0.017522521575259967 0.014501812099305606
000790 17 17 d8 bd 36 d0 a4 bf 67 2c f2 62 f0 5f 7a 3f
       -0.040651045488671204 0.006439150819583884
0007a0 bc 0a 3e cf ea 4b 7b 3f 96 49 75 c2 a8 1a 97 3f
       0.006664197182433437 0.02256263434294111
0007b0 f5 ae 09 a1 03 1a ab bf ea 24 8d 94 fd 67 a7 bf
       -0.05293284741204999 -0.045715259917935416
0007c0 9c 56 58 80 67 91 9f 3f 37 02 8a cf a9 9b b5 bf
       0.030828110893784996 -0.08440648381111591
0007d0 81 99 23 d3 b7 90 88 bf be e5 f1 67 ed 03 95 bf
       -0.011994777804329672 -0.02052279421739
0007e0 3f 02 47 99 e7 4c a9 bf b4 2c 7f 13 51 02 9d 3f
       -0.04941486116468185 0.02832915002344967
0007f0 31 c1 a2 12 de 0f b3 bf 6c 9f 55 b1 1b 69 9c 3f
       -0.07446086840605372 0.027744705866467198
